server/api/model_e2205046.pt (torch, 684553 bytes, 12 tensors)

weight_ih_l0 f4 [512, 64]
00000000: 4ece e13d 5d74 20be dff1 9e3c 0295 693e
00000010: f39e 5ebd 007e a6bd 0552 213c 778c 9f3e
00000020: 0771 b9bd 6455 753e 791b 84be db6d 0b3d
00000030: 286c 35be 5a52 5fbe dc7b 40be f785 833e
00000040: 84a7 91be f775 c6bd 3ff7 553e 6a26 febc
00000050: 0beb 8abd 0856 44be 2b24 2b3d bba5 b03e
00000060: 7463 97bd 22ed a7bd e676 ca3d 01e4 26bd
00000070: 6ced f23d b594 2d3e 9984 913d c9bc bd3e
00000080: 1e95 243d 4601 243e 1741 153d 5ebb 433e
00000090: 5260 9dbd bec2 c6bc a6df a73d 0b60 8d3e
000000a0: 6ff1 7d3d d5ef e43d 6bbf a03e 1b84 763e
000000b0: 691b fbbb bdd0 aa3d 93c3 163e 6a55 ba3e
000000c0: 1d4a bb3e 3472 913d 9d63 10be ef80 74bd
000000d0: 9414 ff3d 525a de3c 0d95 66be b52d c23e
000000e0: d3a2 2b3e c1b3 23bf 535a cabe b7c1 26be
000000f0: 535b 15bd ea94 3abb 3181 c8be 3081 1bbd
00000100: c923 5d3d 0d90 733e 62f2 933d 23dc 92bd
00000110: d120 803d e1eb 3fbd f828 6ebd dbee e23b
00000120: ffd9 c0bd 20b1 d5bd 97a0 8f3c 6710 013e
00000130: 255f 8b3e c2f5 b73d 3b53 5e3d 9424 303e
00000140: 0537 2c3e 9a33 113c 26ce e4bd ae7d 633c
00000150: 66db 9d3e 6d7e 523e 19e9 233e 61f2 e63b
00000160: d4a3 cd3d f1c8 d3ba 85dd d63b 5b68 573c
00000170: bf6f 8bbb ce89 6ebb 2d9c 5cbe 824b 9e3d
00000180: b76d 0fbe 7027 1cbe 3008 80bd c1ee 1f3d
00000190: 18c1 d4bd fbc3 423d 2734 9b3e ce69 2cc0
000001a0: da8d 6ebc cba4 65bd 9d84 193d e471 0f3e
000001b0: cbe4 ec3c fdbc a33d d7cc acbe 3ac8 4abd
000001c0: 6f85 223d eec5 d83d dce3 013e aca1 df3d
000001d0: 9412 a03e 473f 5f3d 7e1b 22be c4b1 bcbd
000001e0: 10a1 ccbd 628c f7bc e6b0 b93d eccc 093e
000001f0: c50c 443e 094e b53d 8c6e 57ba 05f4 9a3d
00000200: 67d9 f63c 9ed1 0f3c 2965 c13d b8d0 973e
00000210: 7dbf df3d 16dc c03d 3939 113d 4065 f53d
00000220: cfbf 2ebe c5f0 e53d 5117 373d ffeb 1e3e
00000230: b6cd 623e c648 39be 87d2 84bd 4d50 d9bd
00000240: 5b7d 6ebd e882 29be c274 a83c 7719 983e
00000250: 37de 7d3d a8d3 e63d ab23 b63d 0241 2abe
00000260: 8293 d5bd b082 6d3c 3721 693e 609d 1c3e
00000270: 73df 9fbe 502c 0b3e d53c 34be 0ccc cc3c
00000280: 1ff3 983c d1a9 8bbd 43bb 543c a96d e8be
00000290: 49ec e53e f19e b6be 06a5 92be 9c67 44be
000002a0: ec9c 0e3e ba2a 93bd 88f8 b5be de81 8abd
000002b0: 9826 17bd bc08 823d b2ca 6bbd e6f0 5ebe
000002c0: 94e3 9f3d ea5e 5abe 8643 403e b4f5 783e
000002d0: e74c 843c 894b c53e a756 223e 90b7 18be
000002e0: b489 a6bd 51c9 8c3e aeb8 b83c e788 f23d
000002f0: 9253 1b3e 5adb d33d c22a 203e bd06 8ebc
00000300: 6b87 b73e 52b5 5bbe 3507 223e 604f b43d
00000310: 8d85 923d 978d 3f3e b850 8d3e 128c 8f3e
00000320: 8b49 443e 294f 20be 059c f4be 3eb0 6dbd
00000330: 084f 823e e532 013e 8603 23be c352 cdbd
00000340: 0a32 163e 5673 6ebd 180e 80be 2b1c 56be
00000350: 7f73 713e 9408 1e3d df57 20be bf05 98be
00000360: 0331 2e3e 64f6 163e d8e5 35be 0080 2dbe
00000370: a704 a9bd c3b8 c0bd c40c 86be caeb 6bbc
00000380: c18d 713e 3a8c 2abe a29f 02bc 4863 40be
00000390: 6d55 343e 8573 61be 27ee 73be dcdb 35bd
000003a0: ca21 ec3e 3039 903e f6c0 463d ba49 f7bd
000003b0: 5981 193d e8b9 aebd a25a 7dbe 0515 a5bd
000003c0: bc75 513e 591b 473d c6b9 5cbe 79b0 a83e
000003d0: 12c6 363e 4a1a eb3d 5e63 c3bd bc9b aebc
000003e0: c067 843e d42c 69bd 49b7 42bb 686d c7bd
000003f0: f98c 33bd a73b eebd bee6 88be cd83 abbe
0.110256776 -0.15669389 0.019402442 0.22810748 -0.054350805 -0.08129501 0.009846215 0.31161854
-0.090547614 0.23958355 -0.2580221 0.034040313 -0.1771704 -0.21808758 -0.18797249 0.25688145
-0.28448117 -0.09690469 0.20895098 -0.031024177 -0.06783112 -0.19173443 0.04178254 0.34501442
-0.07392016 -0.08199526 0.09885959 -0.040744785 0.11861691 0.16951258 0.07105369 0.37058094
0.04018127 0.16016111 0.036439028 0.19114444 -0.07684387 -0.024262782 0.081969544 0.27612337
0.061997827 0.11178557 0.3139604 0.24073832 -0.0076631797 0.08340595 0.14723043 0.3639329
0.3657998 0.07101861 -0.141005 -0.059693273 0.12455097 0.027142677 -0.22517796 0.37925497
0.16761331 -0.6394616 -0.39522037 -0.16284834 -0.036464047 -0.0028470107 -0.39161065 -0.037965
0.053989206 0.2378542 0.07223965 -0.07170894 0.06256259 -0.04685581 -0.05814454 0.0069254464
-0.094165795 -0.104341745 0.01753263 0.12603913 0.27221027 0.089824215 0.054278594 0.17201453
0.16817863 0.0088624 -0.11172132 0.013884945 0.3083145 0.2055604 0.16006888 0.007047937
0.10041013 -0.0016157908 0.006557169 0.013147439 -0.0042552645 -0.0036398056 -0.21543951 0.07729246
-0.14006697 -0.15249419 -0.06251562 0.039046053 -0.10388392 0.047550183 0.30313227 -2.6939578
-0.014560187 -0.056065362 0.037479986 0.1400829 0.02891769 0.07995031 -0.3375003 -0.049507357
0.039678033 0.10584627 0.12684578 0.10919508 0.31264174 0.054503705 -0.158308 -0.092135936
-0.09991658 -0.030218307 0.09066944 0.13457078 0.19145496 0.08852775 -0.0008218072 0.07566074
0.030132962 0.008778004 0.09443123 0.29651427 0.10925195 0.09416978 0.035454962 0.119822025
-0.17065357 0.11227564 0.04469997 0.15519713 0.22148785 -0.18094167 -0.064854674 -0.10611019
-0.058225017 -0.16553843 0.020563487 0.29706928 0.0619795 0.11270839 0.08893522 -0.16626361
-0.104285255 0.01449649 0.22766577 0.15294409 -0.31225166 0.13591123 -0.1760133 0.02499964
0.018670617 -0.06819499 0.0129841 -0.45396164 0.44906834 -0.35668138 -0.28641528 -0.19180149
0.13927048 -0.07185884 -0.35541177 -0.067630515 -0.03690204 0.06349322 -0.057566352 -0.21771583
0.07807079 -0.2132527 0.18775758 0.24312478 0.016149951 0.3853419 0.15853368 -0.14913774
-0.081317335 0.27497342 0.022549 0.11842518 0.15168598 0.10344572 0.15641311 -0.017337197
0.35845503 -0.21455887 0.15823062 0.08804202 0.07154379 0.18706356 0.27600646 0.28036553
0.1916868 -0.15655197 -0.47775283 -0.058029406 0.2545092 0.12617071 -0.15919313 -0.10025551
0.14667526 -0.05821546 -0.25010753 -0.20909183 0.23579215 0.0385824 -0.1565852 -0.29691884
0.17010884 0.14742428 -0.1776346 -0.1694336 -0.082528405 -0.094102405 -0.26181614 -0.014399478
0.23589231 -0.16655055 -0.00797263 -0.18787873 0.17610712 -0.22016723 -0.23821317 -0.044399127
0.4611953 0.2816863 0.048523866 -0.12074609 0.03747687 -0.085315526 -0.24741605 -0.0806065
0.20455068 0.048610065 -0.21555242 0.32947138 0.17848995 0.114796236 -0.09540437 -0.021314494
0.25860405 -0.056927517 -0.0029711297 -0.097376645 -0.043835614 -0.116324715 -0.26738542 -0.33498994

weight_hh_l0 f4 [512, 128]
00000000: 5b1a a3be 5217 cfbd ecde bb3c 7207 bc3d
00000010: c2de 0bbd fa8a 893e d8bf 0a3c ee34 1b3e
00000020: bac8 d03d e9ef 00be 95f9 84be c924 a6be
00000030: 0418 113c 8127 c6be f4fc e1bd 3607 c1be
00000040: 8f32 7f3c 1f7a cd3e a5b2 0fbc af47 793e
00000050: d5af 25bd 9f20 56be 99e2 57bc 927e 94bd
00000060: c94f 4dbe 029e 90bc 82ca f13c 429e a9bc
00000070: cb38 08be 470b aa3d a82e 13be 568c 733e
00000080: ba8b 323e 25d5 afbe 0e4c 823e 39f6 77be
00000090: fa62 b7bd 5c41 bf3d 3196 aa3c 4bcd 833e
000000a0: 0d67 b33d 3087 edbc 5bb3 adbd 5128 743d
000000b0: 6248 c73d 9efe d2bc 0050 7e3e c581 06be
000000c0: 8dec a9bd c5eb 9c3e 3a2a 193e ffb1 eebd
000000d0: 3800 fd3d 65a4 f7bd cf64 9dbe 2521 f9bd
000000e0: 72cb 2cbe 3e89 ae3e 28bf feba 6758 20bc
000000f0: 73a3 283c 72fb 0bbd 7ebd 133e b506 2abe
00000100: 98da ca3d 7b81 9d3c fd37 44bd f37c 8cbd
00000110: de40 58be ea84 a1be 105b 2e3e 2593 7a3e
00000120: f55c e03d 439b 64be 9651 e83d 8af9 e3bd
00000130: 715e 49be 9d36 cb3d 048a cdbe 79e4 cbbc
00000140: 33ab 67be df45 fdbd 66ea 43be 2847 eabd
00000150: 0fc7 d1bd 1ed4 edbd 42fe 743e 6581 c9bb
00000160: 74fd 8d3d 3d14 b3bd 22c2 ab3c 50ed 9bbd
00000170: b690 a6bc 5e54 99bd 3fe6 83bd 87a6 b4be
00000180: f023 1dbe f202 15bc 097e 783e c248 0abe
00000190: ebb4 fb3c 5f44 7f3d 4ad8 d8be 93c4 fdbd
000001a0: 6776 af3e c301 68be a65e 80bd 089d fabd
000001b0: 008e 30be 2c3c 6d3e ecc6 af3d d41e a2bd
000001c0: 708e c73e 5f69 963e 4c51 a739 c9eb 233c
000001d0: 1a8e 92bc 356a c63e 0ac5 54bd 4edc 773d
000001e0: 247d 533e 95f1 56bd 45e6 5a3e 8a82 103e
000001f0: 1aba 3bbb 1f9d dd3b f416 33bb ae48 e4bd
00000200: 5b5b 143e d21f 463e 4051 6ebe 9507 133a
00000210: 5577 af3d 3893 9a3e b26a a23d 5482 1bbe
00000220: 5072 0abe a36c 34be a896 ff3c 349d 8abe
00000230: cf80 853e 040c f2bd ade1 3bbe b2f3 98bd
00000240: 5ad7 7fbd 3bba 53bb 9e33 9abe 68a4 0f3d
00000250: 71ab 8b3d b101 d8bc 977e 083e 27ef e4bd
00000260: 88fa 7bbd eb6b 1b3e be53 e93d 7334 713e
00000270: 1316 733e 7435 b7bd 65b7 213e c312 a53d
00000280: c97c 56be fb28 7dbc 25a6 02be fd31 1b3e
00000290: 2f32 d73d 2dd6 9c3d 8744 e13d 58d2 7b3e
000002a0: 83ba 433d 970e edbd 0ce2 be3b f0bf 483e
000002b0: 6087 11be c448 85bd 6e22 31bb a3bd 963e
000002c0: 5ef6 4c3e 8aa1 a23d a722 04bd a64d 5f3e
000002d0: a725 a23e d26f 833e b403 cbbe 77da acbd
000002e0: 2fcc dcbd 7d8b 43be 19a9 283e 3b67 97be
000002f0: a37d 3bbe 9029 1e3d b210 2d3d 11c3 dbbd
00000300: 646d a2bc fbb7 b2be b3c3 1cbe 20df 23bd
00000310: 9b36 593c e534 60be 731f 18be a952 0a3d
00000320: 2e57 4d3e e5b3 5fbe bff6 483e 3e13 0abd
00000330: 33ce 6abe 5284 a63d c6a2 643e e460 4fbe
00000340: 691f df3d 4a4f d03d 648c 09bd 66c4 813d
00000350: 498a c1bd 13ac 4abd 68a7 5a3e 21fe 233e
00000360: a98d af3c d0a4 1ebe 4be1 a13d f86c 6a3e
00000370: 8aaa bdbd 6b13 c53e 40d0 64be 88cd 6b3d
00000380: 95f6 e63d 91b3 b2bc b3d6 593e 882d 44be
00000390: 48c8 25be aae5 ccbe d22a b1bc 83b7 dc3d
000003a0: 6918 8cbe a50f f7bc cee6 b4be 6029 48be
000003b0: 5c8f c13d 3b96 c03e a00b 683e 4111 a8bd
000003c0: 7e1f 55bd c556 d5bd dea6 d83d 52a2 be3c
000003d0: 5410 dbbd 7f59 b93d b4e0 53be ac23 cdbd
000003e0: 5b0c f2bb ccaf a83e b340 acbe 5612 6cbe
000003f0: dec1 a83e 50f9 62be dd2b c23d 4b8d 393d
-0.31856045 -0.1011187 0.022933446 0.091811076 -0.034147985 0.26863843 0.008468591 0.1515691
0.101945356 -0.12591518 -0.25971666 -0.3244994 0.008855823 -0.38702014 -0.11034575 -0.37700814
0.015576019 0.40132234 -0.0087706195 0.24343751 -0.04045089 -0.20910881 -0.013176584 -0.07250704
-0.20049967 -0.017653469 0.029515509 -0.020705346 -0.13302915 0.08302932 -0.14373267 0.23784003
0.17436114 -0.34342304 0.2544865 -0.2421502 -0.08954425 0.09338638 0.02082357 0.25742564
0.0875989 -0.028995126 -0.08481475 0.05960876 0.09730603 -0.025756177 0.24835205 -0.1313544
-0.082970716 0.30648628 0.14957514 -0.11655044 0.12353557 -0.12091903 -0.30740973 -0.12164525
-0.16874483 0.34089082 -0.0019435631 -0.009786702 0.010292876 -0.034175344 0.14427754 -0.16604121
0.09904975 0.01922678 -0.047904957 -0.0685977 -0.21118495 -0.31546718 0.17026925 0.24470194
0.1095523 -0.22324853 0.11343686 -0.1113158 -0.19664933 0.09922526 -0.4014436 -0.024889218
-0.22623901 -0.123668425 -0.19132385 -0.11439353 -0.102430455 -0.11612724 0.23925117 -0.0061494582
0.06933108 -0.087440945 0.020966593 -0.07613623 -0.020332675 -0.07486795 -0.064404 -0.352833
-0.1534574 -0.0090949405 0.24266829 -0.13504317 0.030725917 0.062321063 -0.42352515 -0.12391009
0.3427002 -0.22656922 -0.06268053 -0.122369826 -0.17241669 0.23167485 0.08582863 -0.07916036
0.3897586 0.29377267 0.00031913293 0.010004946 -0.017890025 0.38752905 -0.051945724 0.060512833
0.20653206 -0.052476484 0.21376903 0.14112297 -0.002864486 0.006763115 -0.0027326914 -0.11146675
0.14487974 0.19348076 -0.23273182 0.0005608735 0.08567683 0.30190444 0.07930507 -0.15186435
-0.1352017 -0.17619567 0.031199768 -0.2707306 0.26074836 -0.11818698 -0.18347807 -0.07468356
-0.062461235 -0.0032307047 -0.30117506 0.0350689 0.06819809 -0.026367994 0.1332954 -0.11178427
-0.061518222 0.15177886 0.11392926 0.23555164 0.2373889 -0.08945742 0.15792616 0.08060219
-0.2094604 -0.015451665 -0.12758692 0.15155788 0.10507619 0.07658038 0.10999399 0.24591959
0.047785293 -0.115750484 0.0058252867 0.19604468 -0.14211798 -0.065080196 -0.0027028578 0.29441556
0.20015857 0.079409674 -0.03225961 0.21806964 0.3166935 0.2567125 -0.39651263 -0.08440106
-0.107811324 -0.1909618 0.16470756 -0.29570946 -0.18309645 0.038613856 0.04225225 -0.10730565
-0.019827552 -0.3490599 -0.15309028 -0.04000771 0.013257648 -0.21895178 -0.14855747 0.033770237
0.20052788 -0.21845968 0.19625376 -0.033709757 -0.22930221 0.08130707 0.22327718 -0.20251805
0.10894663 0.10171373 -0.033581153 0.06336288 -0.09450204 -0.04948051 0.21352923 0.16014911
0.021429854 -0.15492558 0.07904299 0.22893131 -0.09261043 0.38491377 -0.22345066 0.057569057
0.112775005 -0.02181414 0.21273308 -0.19157994 -0.16189682 -0.4001897 -0.021626864 0.107771896
-0.27362373 -0.030158827 -0.3533234 -0.19547033 0.09451172 0.37614617 0.22660685 -0.08206416
-0.052031986 -0.104169406 0.105787024 0.02327076 -0.10696474 0.09050273 -0.20691186 -0.100165695
-0.007386727 0.32946622 -0.33643112 -0.2305387 0.3296041 -0.22165418 0.094810225 0.045300763

bias_ih_l0 f4 [512]
00000000: 807b 03be 517e 00be 9650 e63d 0438 52be
00000010: cc03 013e 306c 5e3e e7cf f2bd 54a1 843c
00000020: 2e9c e4bd c479 0dbe 05fe 45be d9bc 0d3d
00000030: d60e edbd e12e 40be 808f 1fbe 5c27 45bd
00000040: 56e3 bd3d aec8 07be 0724 c33d 2450 5cbe
00000050: adec 903d 2c9d 6d3b 36b8 b6bd 117f 5ebe
00000060: 903d 3cbe d3ab 0bbe bcb7 34bb b0af 353e
00000070: a449 d2bc ed5c 373d 1687 53be 54aa 1bbe
00000080: 65b2 49bd e2a8 c9bc bca1 5d3e 8444 1bbd
00000090: 02bd 5bbe 4dbd e93c 750a 00bd 4851 f7bd
000000a0: a90f 0cbe 48f1 1ebe ee9d eabd b2a4 84be
000000b0: 782f 28be a75c 8abe 8bd8 1bbe c3e2 a33e
000000c0: 491d 4ebe 6b34 71be e3ae 38be 3fdc 41bd
000000d0: 7168 cfbd 975c 5abe 5cbf 483e 5ee3 f23d
000000e0: 0ca8 913c 5c0a 7cbe 2a7a 363d faf0 2fbe
000000f0: 95f3 0abe 642b 01be c814 3cbc 49d6 2ebd
00000100: ac8d 133d 66e0 aabd a03c bcbc 173f 5a3d
00000110: 8c1f 67be 8e05 2fbe 11c5 da3d 2c3a 933d
00000120: 0197 40bd 9cca 3dbe c055 33bc bf0e 9bbd
00000130: e7b7 2e3e 0fc5 313c 0d72 803d b910 09bd
00000140: 111e 99bd 50d9 8cbd d167 25bc bdca b4be
00000150: 16e7 9e3d 7f68 95be 29a9 93bd 667f 33bd
00000160: a294 2dbe ba1d 26be a253 a6be 276c 8cbe
00000170: f159 bbbd 10ec 17be e74d 9fbe b165 89be
00000180: 93c3 66be 4fa4 e43a e9b7 653b 99ee 00be
00000190: 501f 383d 6e36 bcbd 9089 003d 02c3 2d3b
000001a0: ae32 2fbe f24c a43c 7769 2cbe a5cc 14be
000001b0: 2b48 89bd cc69 7abe b9b7 cc3c 813b 57be
000001c0: 8a6f 17be 6ea3 08be 17d8 bc3c 04ff b1be
000001d0: d930 9f3c 1e82 e739 c0c6 6ebd 89b2 dfbc
000001e0: 13fe a6bd d63f 293d a14d 783d 6514 dbbd
000001f0: 4e04 3ebe 2247 5fbd 1a61 51be 46ce 76bb
00000200: 787b 0ebe 01e4 85be 0432 5ebe 5b30 83be
00000210: f29e 14be 172c 00bf f3b2 e7bc b53e 97be
00000220: 1b41 41be 6b56 8dbe c5a0 bbbb ac7d 7cbd
00000230: 95fa 83bd a1c6 19be a1d4 22be f7f4 80bd
00000240: 1fbf 9bbe 03cf 07be c6db 26bd 615d 13be
00000250: a429 89be d79d d6bd d8aa 44be bb85 5fbe
00000260: d8da 41be d9cf 4abe 401d 64be 7332 e6bd
00000270: 0f1d 51be 263c e7bd 1e13 48be eadd 133d
00000280: 4d9d bfbd 5d98 fbbd 3b2e d8be 7920 d83b
00000290: 9e04 70be f9b1 adbe 7e8d 303d a58d 3bbd
000002a0: ca94 8ebe 5512 d1bd dd68 01be 0224 c1bc
000002b0: 93cf 23be 0e2d c3bd f103 a6be 0549 41be
000002c0: ec00 e6bd 7589 3cbd 8b67 d5bd 7832 abbd
000002d0: 5980 80bd 568f 87be 4cb7 3abe b96b 4bbe
000002e0: 01ec 98be 833d 8dbe a122 d8be e14d f4bd
000002f0: 81a4 59be 9644 a4bd 2dbf 81be f7f5 1abe
00000300: 79e7 5d3c 4fd6 a6bc a70b 1fbe 0342 86be
00000310: e18f e6bd 2725 60be 9eb3 d0be 853d 11be
00000320: dc61 2cbe 2305 2abe 901a a0be 2029 3dbe
00000330: 3204 fabe 1b45 73be 9531 d8bc 911f 9bbe
00000340: 0183 86be f74b 91bd 159d a6bc 37ef 6bbe
00000350: 700f 52be c87c e0bd 6ca3 fbbd 6bc8 f63c
00000360: b872 02be 4148 f1bd a7fa b0bc d580 f5bd
00000370: 6a1a 70be 2044 8fbe 65ed 55be 0ae3 59be
00000380: af4c cd3a 4a0c b9bd 3ef5 17be d2da 83be
00000390: 9ee0 88bd 9388 b9bd 8e8f 01be f68c a4be
000003a0: 1e96 5abe 95af 6fbe c11e 27be 891a 26be
000003b0: c4ba b1bd 3d24 1dbe 5108 59be abd5 76bd
000003c0: 8378 92be 3d56 e7bd d953 4dbe 9455 60be
000003d0: 4598 a0be 88d6 40be 6caf 5bbd 5edc e1bd
000003e0: d2c6 9dbd 9801 dcbe ecbb 7abe 61eb afbd
000003f0: ebdf b2bd 0432 2abd 18d4 6abe 1eb5 c2be
-0.1284008 -0.12548186 0.11245839 -0.20529181 0.12599105 0.21720958 -0.118560605 0.016190208
-0.111626014 -0.13815981 -0.19335182 0.034603927 -0.11575095 -0.18767883 -0.15582085 -0.04813324
0.092718765 -0.13260147 0.09528356 -0.21514946 0.07076392 0.0036257012 -0.08921854 -0.2172816
-0.18382859 -0.13639764 -0.0027575335 0.177428 -0.02566988 0.044766355 -0.20657 -0.15201694
-0.049242396 -0.024616662 0.21643728 -0.03790714 -0.2145882 0.028532648 -0.031259973 -0.1207605
-0.13677849 -0.15521729 -0.11455904 -0.25906903 -0.16424358 -0.27023813 -0.15219323 0.32008943
-0.20128359 -0.23555152 -0.18035464 -0.047329184 -0.101273425 -0.21324383 0.19604248 0.11859773
0.017780326 -0.24613327 0.0445501 -0.17181769 -0.13569482 -0.12614208 -0.011479564 -0.042684827
0.03602378 -0.08343582 -0.022978127 0.053282823 -0.22570628 -0.17091963 0.10682119 0.0718883
-0.04701901 -0.1853432 -0.010945737 -0.07571172 0.1706234 0.010850205 0.062717535 -0.033463214
-0.07476438 -0.068773866 -0.010095553 -0.35310927 0.0775892 -0.29181287 -0.07209999 -0.04382267
-0.1695123 -0.16222277 -0.32485682 -0.27426264 -0.09148014 -0.14836144 -0.31114122 -0.26835397
-0.22535543 0.0017443987 0.0035052246 -0.12591018 0.044951737 -0.09190069 0.03138119 0.0026513939
-0.17109177 0.020056222 -0.16837107 -0.1453119 -0.06703218 -0.24454421 0.02498995 -0.21018793
-0.14788643 -0.13343593 0.023052258 -0.34764874 0.019432472 0.00044156698 -0.05829501 -0.027306812
-0.081539296 0.041320644 0.060620908 -0.10697249 -0.1855633 -0.054511197 -0.20447198 -0.003765957
-0.13914287 -0.26150516 -0.21698767 -0.2562283 -0.14513758 -0.50067276 -0.028283572 -0.2954003
-0.18872492 -0.27604994 -0.0057259523 -0.061643288 -0.06444279 -0.15017177 -0.15901424 -0.06296723
-0.3041925 -0.13262562 -0.040736936 -0.1439109 -0.26789582 -0.10479324 -0.19205797 -0.21828358
-0.18931139 -0.1980585 -0.22276783 -0.11240091 -0.20421241 -0.11290769 -0.19538543 0.036100306
-0.093561746 -0.1228492 -0.4222277 0.006595668 -0.23439261 -0.33924845 0.043103687 -0.04578938
-0.27847892 -0.10208575 -0.12637658 -0.02357674 -0.15997152 -0.09530078 -0.32424882 -0.18875511
-0.112306446 -0.046029527 -0.1042014 -0.083592355 -0.062744804 -0.26476544 -0.18233985 -0.19865312
-0.29867557 -0.27585992 -0.4221392 -0.11928917 -0.2125416 -0.08020894 -0.25341168 -0.1513289
0.013543957 -0.020365862 -0.15531789 -0.26222238 -0.112579115 -0.21889172 -0.40762037 -0.14183624
-0.16834205 -0.16603522 -0.31270266 -0.18472719 -0.48831326 -0.2375683 -0.02639083 -0.3029752
-0.26271823 -0.07094567 -0.020338574 -0.23040472 -0.20513701 -0.109613 -0.122870296 0.030124864
-0.12739074 -0.117813595 -0.021603895 -0.119874634 -0.23447576 -0.27981663 -0.2089134 -0.21278015
0.0015663112 -0.09035547 -0.14839646 -0.25752884 -0.06683467 -0.090592526 -0.12652418 -0.32138795
-0.21346328 -0.23406823 -0.16320325 -0.1622106 -0.08678201 -0.15345855 -0.21194579 -0.060262363
-0.28607568 -0.112957455 -0.20051517 -0.21907645 -0.31366172 -0.18831837 -0.053634092 -0.1102836
-0.077039376 -0.42969966 -0.24485749 -0.08589817 -0.08734115 -0.041551605 -0.2293247 -0.38028806

bias_hh_l0 f4 [512]
00000000: 8a56 92bd 47fb d8bd 9e4c a83d c9ae 85be
00000010: b4fb c03d be3a 263e 2f51 883a 4a27 2d3c
00000020: bc3b 963b 7af1 acbd 2c7a 7dbe d37a 253d
00000030: 26fe e9bd be0a 46be 8832 0dbe 11ce 8bbd
00000040: 64f9 d83d 6878 19be 0e0d 023d 553c 24be
00000050: 1f74 97bd 0eb3 0a3c 8ea2 30be 6d5a 8abd
00000060: f450 4abe 17ef 1ebd cbbb 87bd 3e0f db3d
00000070: 3e59 81bd c085 933c e8cc 81be 8f18 32bd
00000080: a453 d4bd aae9 d9bd f378 1d3e 08b3 37be
00000090: cc9b 1dbe 3c55 bf3d 6e12 abbc bdbe 00be
000000a0: c42d fabd 5bb7 08be 43f1 38bd 6f5e 83be
000000b0: 5222 03be 1d5b 88be 39f5 cdbd d749 a03e
000000c0: ac07 9ebe acd9 3fbe ba09 5cbe 09ee 01be
000000d0: c573 f8bc d5a7 6abe 5c2e 553e f418 16bd
000000e0: b78f 113d 7b78 41be bc85 493e 2086 6fbe
000000f0: 7a8a 0cbe 8878 29bd b8e9 6dbc 4385 03be
00000100: 78f9 15bd 1243 abbd 32e4 343d 7a15 ed3d
00000110: 5da5 41be 8b12 ddbd 6d92 023e 1e7b 1b3e
00000120: dbf5 07be d870 f1bd 2730 1ebc 53b4 1abe
00000130: 9a1b 213e 5634 f03c 689f 97bd 03cc db3d
00000140: b90f aebd 2b72 bfbd 5360 b8bc 5eac 97be
00000150: e239 b7bd 5699 8bbe 6e25 e5bd 63c1 0ebe
00000160: 7a4f c7bd bf73 7bbe f39d a9be 2415 97be
00000170: dd85 b9bc b132 68be 99c0 a9be 2727 67be
00000180: 4371 8cbe aa28 1dbe c8da 11be 6d61 27be
00000190: 9c52 cc3d 9b11 f8bc 50b1 983d 0d3c b23d
000001a0: 497c 62be 2615 ee3d 5200 c8bd 836a 82be
000001b0: 2f9c 34bd 88e2 5dbe 8be7 ae3d 5978 37be
000001c0: a128 09be 966e 8ebe 8dad 6bbc 6872 9ebe
000001d0: 9aec fabd 2d1b 8d3c 87fc 8d3c 4737 923a
000001e0: b275 1abe d583 f23c c174 f43c b5e7 3abe
000001f0: 14f2 3ebe ef16 2dbd 6a20 b9bd cb72 debc
00000200: 997a b9bd 6444 acbe ce64 35be b683 8dbe
00000210: 0158 19be 4a05 08bf 2876 a9bc cede bbbe
00000220: 4d1a 03be 0320 83be d385 d0bc 363f 0d3d
00000230: 9d52 4bbb a638 11be af91 3dbe 2e39 ae3c
00000240: 52df 4abe 119b 07bd 8bc1 91bd 3d2c 1bbe
00000250: 56f3 5bbe 0b08 dfbd 2c72 84be 1feb f2bd
00000260: 8f94 56be 6c5e 9ebd ce16 0bbe 7f6b 57bd
00000270: b7ea 4abe 118b 44be 4936 4ebe fa06 62b8
00000280: 62e0 25be 8310 fdbd a1a2 bebe e9e6 08bc
00000290: a53c d4bd 2332 adbe a24f abbd b0f6 77bd
000002a0: a15f 8dbe 3f2b d9bd 2188 89be 2722 c3bd
000002b0: f0f2 6bbe d17e 68be bed9 94be 9b36 5ebe
000002c0: b6e6 20bd ef70 3dbd f71a 793b af51 d1bd
000002d0: 1afc 23be 9b41 86be d9fd cdbd a910 24be
000002e0: 3cf9 99be 9290 9dbe 4911 9fbe 8f50 2cbe
000002f0: 20f9 89be 8b8b 8abd cb35 8fbe 1a36 f5bd
00000300: 86d5 1a3c 6ed0 21be 3e56 cebd edf7 41be
00000310: 8ea9 f6bd dfd0 9cbe 96b9 afbe 0731 44be
00000320: 1b51 23be df28 2fbe e8b3 85be bab2 0fbe
00000330: 7ec9 c8be 5ad7 4fbe e7c0 e33d 47e0 89be
00000340: 92a6 46be 569a 233b 9625 cdbd 2f42 85be
00000350: 9a46 5ebe db77 38be 7f36 34bd 95e7 58b9
00000360: 5c11 f9bd 2cd1 0dbe 7962 1abd 0acd 58be
00000370: 1100 83be 1a30 4cbe 5e33 3cbe 2f92 29be
00000380: 17c8 cfbd 1f32 183d c777 03be b428 bebd
00000390: 5394 56bc 25d4 28be 195d 2bbe 83a9 b7be
000003a0: 94e5 5abe 7e5e 29be 1556 95bd 7b88 5fbe
000003b0: 1978 34bd 0dd6 34be 8713 15be ff86 18be
000003c0: 64bb 7dbe 7788 89be 4eda 36be a324 1dbe
000003d0: b4ed 82be 72d9 0fbe cdc9 a8bd 4b0a c0bd
000003e0: e022 13be 48fa dfbe 03bd bfbe f140 a1bc
000003f0: 0e95 55be 0429 f4bd 4ebf 55be b4ff a5be
-0.07145412 -0.10594802 0.082177386 -0.26109913 0.094230086 0.16233346 0.0010400171 0.010568449
0.0045847576 -0.084444955 -0.24753636 0.040400337 -0.11425428 -0.19340035 -0.13788807 -0.068264134
0.105944425 -0.14987338 0.03175073 -0.1603864 -0.07395195 0.0084655415 -0.1724951 -0.067555286
-0.19757444 -0.038802233 -0.066276155 0.106962666 -0.0631585 0.018008113 -0.25351644 -0.043480452
-0.10367516 -0.10640271 0.1537817 -0.17939389 -0.15391463 0.09342429 -0.020882811 -0.12572761
-0.1221576 -0.13351195 -0.04515196 -0.25657985 -0.12806061 -0.26632014 -0.10056538 0.31306335
-0.30865228 -0.18735379 -0.21488085 -0.1268846 -0.03032864 -0.22915585 0.20818466 -0.03664489
0.035537448 -0.18893616 0.19679922 -0.23391008 -0.137247 -0.041374713 -0.014521055 -0.12843804
-0.036614865 -0.08362402 0.044162937 0.11576362 -0.18910737 -0.107945524 0.1275117 0.15183684
-0.1327738 -0.11789101 -0.009655035 -0.1510785 0.15733185 0.02932183 -0.07403451 0.107322715
-0.084990926 -0.09347948 -0.022506868 -0.29623693 -0.08946587 -0.27265424 -0.1118878 -0.13940959
-0.09731956 -0.24555872 -0.33128318 -0.29508317 -0.022646839 -0.22675587 -0.33154753 -0.22573529
-0.27430162 -0.15347543 -0.14243615 -0.16345759 0.09976694 -0.030281832 0.07455695 0.0870286
-0.22117724 0.116251275 -0.09765686 -0.25471887 -0.04409426 -0.21668446 0.08540257 -0.17917003
-0.13394405 -0.27818745 -0.014384639 -0.3094666 -0.122521594 0.017224872 0.017332328 0.001115539
-0.1508396 0.029603878 0.029840829 -0.18252452 -0.18647033 -0.0422582 -0.090393856 -0.027154347
-0.09056587 -0.33645928 -0.17714235 -0.2763955 -0.14974977 -0.5313307 -0.020686224 -0.36693424
-0.12803002 -0.2561036 -0.025454437 0.03448411 -0.0031024583 -0.14181766 -0.18512605 0.0212675
-0.19811752 -0.033106867 -0.071169935 -0.15153594 -0.21479544 -0.10890206 -0.25868356 -0.11861252
-0.20955108 -0.07732853 -0.13582918 -0.05259275 -0.19816099 -0.19193675 -0.20137896 -5.3889096e-05
-0.16198877 -0.12356665 -0.3723345 -0.0083558345 -0.103631295 -0.33827314 -0.08364798 -0.060537994
-0.27612022 -0.10603952 -0.2686167 -0.095279984 -0.23041892 -0.22704627 -0.29072374 -0.21700518
-0.039282523 -0.04625028 0.0038010457 -0.10220658 -0.16014138 -0.26221928 -0.10058183 -0.1602198
-0.30072963 -0.3077436 -0.31067875 -0.16827606 -0.2694788 -0.06764897 -0.27970728 -0.1197321
0.009450322 -0.15802166 -0.10075043 -0.18942232 -0.12044059 -0.30628106 -0.34321278 -0.19159327
-0.15948908 -0.17105435 -0.2611382 -0.14033023 -0.39216226 -0.20296994 0.111207776 -0.26928923
-0.19399479 0.0024963818 -0.100169346 -0.26027057 -0.2170662 -0.18014471 -0.043997284 -0.00020685636
-0.12161514 -0.13849324 -0.037691567 -0.21171966 -0.25585988 -0.19940224 -0.1837897 -0.16559671
-0.10145586 0.037157174 -0.1283866 -0.09285107 -0.013096887 -0.16487177 -0.16734733 -0.35871515
-0.2137664 -0.16539952 -0.072918095 -0.21829407 -0.044059847 -0.17659779 -0.1455823 -0.14895247
-0.24778515 -0.26861927 -0.17856714 -0.15346007 -0.25571978 -0.14047793 -0.082416154 -0.09376963
-0.14368773 -0.43745637 -0.37448892 -0.019684287 -0.20857641 -0.119218856 -0.20873758 -0.32421649

weight f4 [128, 128]
00000000: 0d4b cbbd f065 04be 617c b13d bff3 bbbd
00000010: 2e67 933e d958 073c e8a9 f63c 381e 52bd
00000020: ddab a53e 9442 c13d 53ee a83d bcfd 58be
00000030: 2096 4cbe ef8e 29be 8427 d73d 70f9 a63d
00000040: 369b 1ebe d454 8b3d c926 03be 20e2 8a3d
00000050: e20b a1be 5868 9abd cec3 17be df3c 343d
00000060: 854a 353e 9a7f fb3d a95d a5bd 0b72 e5bc
00000070: 30ca f3bc 9830 b1be afeb 07bd 8380 583d
00000080: 523c 083c 1824 debd fc6d 8dbe 8716 163e
00000090: f91f b9bd d884 523e dd1b 0bbe 0a52 81bd
000000a0: 3673 4a3d f194 12bd eb94 80be dd04 0a3e
000000b0: f3b5 3b3e 99d2 8ebd 4a88 043e 9223 683c
000000c0: a505 4f3d 9d82 6a3d c39b 85be 5daa 2dbc
000000d0: b462 543e 63e3 08bd 0859 353d f671 da3d
000000e0: 4a8f 933d 6a47 c8bd 1755 ab3e ba27 e3bd
000000f0: b2ab e9bd 42ba 793c 3059 3cbd 7bb5 c53e
00000100: 6b51 5b3e 435b 87bd 2ccd 36be 8ebe 5dbb
00000110: 06ad 22be 90b3 17be ecc1 5cbd d423 47bb
00000120: 214a 21bd 7237 f33d 9ab7 a33d 82af e1bd
00000130: eb0b 023d 6697 c6bd 2d97 a13c 3b7a 68be
00000140: 9383 ff3d 2776 523d ab24 69bd feb9 df3c
00000150: 6f46 bc3d 628b 6a3c c087 a2bd a432 483c
00000160: 0a77 8cbd ee2d 0dbe 62e6 02be c857 88bd
00000170: 6092 85be fa42 ae39 01a1 f73d 1992 73bd
00000180: 9435 9f3d e9e6 413e aef9 7a3d 314a 693e
00000190: 576a d9bd e773 68be d38b acbc 0097 82be
000001a0: a879 9dbc 59cd eb3b aebf c43c 0e09 8dbd
000001b0: d1cd e33d 790f 303d 54e9 49be 9a52 eebd
000001c0: bfac 87be 8a14 06be a048 253e f39a b13d
000001d0: e788 413c bb3e 90bd f150 39be 0196 c93d
000001e0: a80e 50bd 56ab a0be 378f af3c 29cc 81be
000001f0: 1c8b 813e 63b1 1abe 05aa 6e3c 9def 953e
00000200: 135b 763c 84f2 a83a c42d f7bc 28e7 273e
00000210: 668d 2d3e 51ed 893e cebf 463e bc99 473e
00000220: e8a7 b7bd 8c0c 083d 8707 7d3e a600 1aba
00000230: e924 4abe 9db8 ee3d 3bc9 e73b bc0b 2bbd
00000240: f3a0 aa3c 7b24 3cbd 83f9 1cbe 4b93 973d
00000250: 30be 093e 7a00 143e b473 9bbe 1ada 21be
00000260: 058d 0d3e 2a79 33be 96a4 ffbc 8398 083d
00000270: 2b9b 743d bc07 8bbe b161 15bb 65cb 203e
00000280: 22ce 64be 83c9 2e3e 5079 c9bd 7691 b7bd
00000290: f48e 023d 7377 713e 5216 a0bd 6d5a 5cbe
000002a0: f04b dd3d 3ae1 37be 9603 11be 8ddb 083e
000002b0: 422e 033e f1a3 e8bd abad 2a3e 2493 5d3e
000002c0: ca48 aa3d 9e13 f7bc 0d15 9abe 34a7 55bd
000002d0: 914f 103e 70ff 123e 5b0a 643e d9ba 033d
000002e0: acf3 f3bd 1f00 043e 3cff e53a b0ee e1bd
000002f0: a28a 5a3c a230 d13c a095 fabd e5a5 13be
00000300: 04f6 cf3d 01c0 98bd bdc8 2c3d 8088 32bd
00000310: 5524 19be 05b0 283e f0c0 c73d 64c9 e33d
00000320: a2ef 19be 0edc 163e 0ffa 18be 9124 3d3e
00000330: 5ecd 49bc 8939 4f3e ac94 423e c601 5ebe
00000340: 8e56 e2bd 43ce a93d 19ff f93d 00e0 0c3d
00000350: 718f bc3d 85f2 193e 7262 0f3d 6b8e a7bc
00000360: 5b8b 903d 2e3a 023e a40a 18be d247 a7bc
00000370: 6d35 abbd ee38 1fbd 7f0b 873c b6e5 353d
00000380: ae27 e23a 3f57 963e 0c83 0e3e b420 b73c
00000390: d268 4abe db0e ffbc cfa2 bb3d 24a2 0fbe
000003a0: 363f 493e df4f eb3d ef3e 41be 1ebb 293d
000003b0: 7ba9 a73c 0fbc a5bb dca6 77be be25 23bd
000003c0: a495 89be 7f3f 20be 55b0 3a3b f447 533c
000003d0: 91c2 61bd a939 583d e43d 7fbc e10f 223d
000003e0: 3da1 453d 8fd9 93be afb0 c4bd 2d5d 7abd
000003f0: 5ff6 303e ad21 8abe faf3 babc b50d a9bc
-0.09926424 -0.12929511 0.086663015 -0.0917735 0.28789657 0.008260929 0.030110314 -0.05129835
0.32357684 0.09436527 0.08248582 -0.21190542 -0.19979143 -0.16558431 0.10505584 0.08153045
-0.15488896 0.06803289 -0.12807764 0.06781411 -0.31454378 -0.07539433 -0.14820787 0.044003364
0.17704208 0.122801974 -0.08074505 -0.028008481 -0.029759496 -0.34607387 -0.03318375 0.052856933
0.008315163 -0.10846728 -0.27622974 0.14657031 -0.090393014 0.20558488 -0.13584848 -0.06314476
0.04942628 -0.035786573 -0.25113615 0.13478418 0.18331127 -0.06973762 0.12942615 0.014168637
0.050542492 0.05725347 -0.260954 -0.0105997 0.20740777 -0.033419978 0.04427436 0.106662676
0.072050646 -0.09779246 0.33463356 -0.110915616 -0.114097014 0.015242161 -0.045983493 0.3861502
0.21417777 -0.06609204 -0.17851704 -0.0033835503 -0.15886316 -0.14814591 -0.053895876 -0.0030386345
-0.039377335 0.1187581 0.079940036 -0.110198036 0.031749647 -0.09696846 0.019725407 -0.22702877
0.12476268 0.05138221 -0.056919735 0.027310368 0.09193122 0.014315458 -0.079360485 0.012219105
-0.068586424 -0.13787052 -0.12783197 -0.06657368 -0.26088238 0.00033237768 0.12091256 -0.0594655
0.07773891 0.18935741 0.06127327 0.22782208 -0.10615986 -0.22700463 -0.021062767 -0.2550583
-0.01922305 0.00719611 0.024017181 -0.06886493 0.11123241 0.042983506 -0.19717914 -0.11636849
-0.26498982 -0.13093773 0.16140985 0.08672132 0.011812425 -0.07043215 -0.18097283 0.09843064
-0.050795227 -0.3138072 0.021430595 -0.25351074 0.25301445 -0.1510673 0.014566903 0.29284373
0.015036362 0.0012889658 -0.03017319 0.16396773 0.1694847 0.2693887 0.19409105 0.19492239
-0.089675725 0.03321509 0.24709903 -0.00058747304 -0.19740643 0.11656306 0.007073549 -0.041759238
0.0208287 -0.045933228 -0.15329556 0.07401141 0.13451457 0.14453307 -0.30361712 -0.15805855
0.13823326 -0.17526689 -0.03120641 0.03334857 0.059718292 -0.27154338 -0.0022793824 0.15702589
-0.22344258 0.17069058 -0.09837592 -0.08963291 0.031874612 0.23580723 -0.07816757 -0.2151887
0.108054996 -0.17957011 -0.14161524 0.13365002 0.12810615 -0.11359394 0.16667812 0.21638161
0.08314665 -0.030160721 -0.30094185 -0.05216141 0.14092852 0.14355254 0.22269575 0.032160614
-0.11911711 0.12890671 0.0017547379 -0.11031854 0.013338717 0.025535885 -0.1223557 -0.14418752
0.10154346 -0.07458497 0.042183626 -0.043587208 -0.14955266 0.16473396 0.09753597 0.111223966
-0.15032819 0.14732382 -0.1493914 0.1847098 -0.01231703 0.20236792 0.19002026 -0.21680364
-0.11051665 0.082912944 0.12206859 0.03439331 0.09207047 0.1503392 0.035005994 -0.020453652
0.0705783 0.12717506 -0.14847809 -0.020419989 -0.083597995 -0.03887265 0.016484974 0.044408523
0.0017254257 0.29363438 0.13917178 0.022354461 -0.19766548 -0.031135013 0.09161913 -0.14026695
0.1965302 0.114898436 -0.18871664 0.041438214 0.020466557 -0.0050578187 -0.24184746 -0.039830916
-0.2687198 -0.15649222 0.002848645 0.012895573 -0.055117194 0.052789364 -0.015578721 0.039565925
0.048249472 -0.28876922 -0.09604012 -0.061124016 0.17281483 -0.26978818 -0.022821415 -0.020636419

bias f4 [128]
00000000: 6d5b 23bd 89dc 0e3e 33ac c7bb 19b1 c7bd
00000010: ac22 3ebd 49d5 20bd 18fc d73c 02aa 1ebd
00000020: f5d1 ac3d 33a6 3dbd bc9c 76bd ea22 043d
00000030: 8f7a 54bd 6c19 26be 637b 88bd 201d 7ebd
00000040: bc7c 9e3d 3f73 ad3d 8ba8 803d 12f5 093d
00000050: f640 f2bb 5c77 c93d 6f94 b13d f765 d2bb
00000060: 0892 0d3e 9180 973d 150f 0abd 363e 31bb
00000070: b76b dfbc c796 83bd a3d4 09be 416d 863d
00000080: b030 5c3d a8f2 723d 97c7 663d 0fbf 003e
00000090: 3e05 8bbc daa1 a63b 2d1f 8fbc 26cb 203b
000000a0: c071 7cbd 1de3 9abc 3450 8cbc 2a6b 90bd
000000b0: 2bef 893d f62b 963d f2f2 c3bd dbe7 bebc
000000c0: 84bd 58bc f14e 44bd e095 743c f96e d3bd
000000d0: 32b9 c2bd 7274 d83d 8a5d 05bc 5042 05be
000000e0: 8f08 6b3d 9ad6 80bd 3655 a43d ea17 8ebc
000000f0: 6d83 6ebd 3117 4abe afd3 1bbc 6a4d 8d3d
00000100: fc51 0abc 7179 203c 3e8c 383d e7cf d7bc
00000110: ef9e 11bd d6f0 debd 6a78 fabc f88e 6bbd
00000120: 9648 2a3d 6889 2d3d f8b7 c33b e218 063e
00000130: c4a5 ccbc 74ad 633d 424c 083e 6c6b 7bbd
00000140: c4cf af3c 6980 90bd 3dda 8d3d 7097 1a3e
00000150: 6b19 14be 03e8 6cbc e3fc 15be 8d06 dabc
00000160: 74a7 8f3d 3068 6e3c 621f b83b c8f5 e23d
00000170: fb4e 003d 86d1 f9bc c70e d2bc 2e7e 27bd
00000180: 10a3 c7bc 5cbf c83c 74cb c7ba d179 74bd
00000190: de36 b2bb d451 8f3d 3872 063d 744b b1bd
000001a0: 539a d3bc 3183 733d b6ac ae3d 7008 b0bc
000001b0: b9f0 efbd d07b b13d 86bd 08bd ce25 5cbc
000001c0: 8f56 08bd 253a 083e 3a1d f7bc 059b 973d
000001d0: a899 1dbd 9b62 113d 7c81 763d 7562 963d
000001e0: a145 c03d 3a1c b03d 8fec c6bc 8e28 19bd
000001f0: 5bf5 9fbd d0f9 1fbd 040c 2f3d d81c 263d
-0.039882112 0.13951315 -0.006093526 -0.097505756 -0.046419784 -0.039265905 0.026365325 -0.03873635
0.084384836 -0.046301078 -0.060208067 0.03225986 -0.051874693 -0.16220635 -0.06664159 -0.062039495
0.07738635 0.08469247 0.06282147 0.033680983 -0.007392998 0.09837219 0.086708896 -0.0064208466
0.13825238 0.07397569 -0.03370579 -0.0027045137 -0.027273042 -0.06425243 -0.1346002 0.06563807
0.05375737 0.059313446 0.056342687 0.12572883 -0.016970273 0.005085212 -0.01747092 0.0024535148
-0.061631918 -0.018907124 -0.017128088 -0.0705169 0.06735071 0.07332604 -0.095678225 -0.023303917
-0.013228778 -0.047926847 0.014928311 -0.10323901 -0.095079795 0.10569085 -0.008139977 -0.13013577
0.05738121 -0.06290932 0.08024065 -0.017345387 -0.058230806 -0.1973541 -0.0095109185 0.06899531
-0.008442398 0.009794579 0.04505562 -0.026344253 -0.03555196 -0.108857796 -0.030574996 -0.057509392
0.04157313 0.04236737 0.0059728585 0.1309543 -0.024981387 0.05558534 0.1331034 -0.061381742
0.021461375 -0.07055742 0.06926391 0.15096831 -0.14462821 -0.014459613 -0.1464725 -0.026614452
0.07014361 0.014551207 0.0056189755 0.11082035 0.03132532 -0.030495416 -0.025641812 -0.04089182
-0.024369746 0.02450531 -0.0015243129 -0.059686486 -0.0054386696 0.06998029 0.03282377 -0.0865697
-0.025830423 0.059451286 0.08529036 -0.021488398 -0.11715836 0.086661935 -0.03338387 -0.013436748
-0.033285674 0.1330343 -0.030165303 0.074026145 -0.038476616 0.035494428 0.06018208 0.07342998
0.09388281 0.08599134 -0.024282722 -0.03739219 -0.0781047 -0.0390566 0.04273607 0.04055485

weight f4 [96, 128]
00000000: d1f3 3bbe eba0 a7bd 8ec8 123e e08b 153e
00000010: 17a7 1f3d af1a 463d 8d3d 313d f1e3 513e
00000020: 4afc 143e 01e8 08be 0a58 b3bd eb45 83bd
00000030: da19 26bd 17a8 8cbc 9368 afbc c561 413e
00000040: 803c 91bd 9841 3c3e f5db 53bd 460b 3d3d
00000050: 8575 6e3e 037b c53d 3a5d 673d 2eee 813c
00000060: 0793 3abe 2f95 66be 7a6c 583e 877e 49bd
00000070: 39ee 193e 563c 4d3d 62ff 22be 6517 2f3d
00000080: 0c73 59bd c5ab 403d 50fa c43c d4a0 28be
00000090: e30f 70be 6350 90bd dfe7 2cbe 1ffe 63bd
000000a0: 60c4 163e b266 3dbe 3f1c 2cbd 8fb6 b4bc
000000b0: 05d5 c5bd f35d 113e aedd 523d a16a f13d
000000c0: 3f74 a1bd 0aae 123c 08af 46be 1a35 cb3d
000000d0: 34a3 88bc a86e 8dbe 902b 18bd fa12 7d3c
000000e0: 6796 b93d 309a a93e 67d8 4bbe 40c5 743c
000000f0: ebd2 493e 38a6 253d b8a7 0f3c 4fe3 303e
00000100: 96a6 883e 177f 6cbd 085f 3b3e 6bf3 0cbe
00000110: 1a80 383e 89b9 2c3c f3de 393c 2d9a fbbd
00000120: bfb8 633e 358b e0bd 9d5d 13be a2e9 293d
00000130: 142f d9bd e6c8 723d 36ef 14be 6de3 c8bd
00000140: ab06 d0bd ac8f 22be ab86 5cbd c123 c5bd
00000150: e0f4 abbc cb13 debc 7e5f 22bd 4ae7 82be
00000160: 9fd5 8dbe 0d86 19bd 7c30 c23d d79a 2abe
00000170: 5488 b6bd a671 643d 9e45 873e e7cf 3cbe
00000180: e711 d23d 81e9 64be 0f27 953b 3970 2a3c
00000190: 140c 5dbe 2d9f 32be 406f 04be c2d5 bbbd
000001a0: a7e8 e7bd 30f9 073c face 563e 80a8 c2bd
000001b0: 6da0 1d3d 904f fabd 27c3 b33d a738 e53d
000001c0: ef8e 6e3d b5d0 d0bd e369 133e 923f db3d
000001d0: e764 bfbd 115d 923e 08ae 4cbd 76ec 403e
000001e0: 2424 ac3d df3e 2cbe af61 dd3c 70db 85ba
000001f0: 6bc8 6a3d 89c2 68bd 76ce 6f3d 28f7 4f3c
00000200: d81f 083e 86f0 0f3e 4353 b9bd 804b c03d
00000210: 5600 f0bd 2dc3 863e 697d 9abd ef97 62be
00000220: ab49 883d b2f6 6c3d 0240 4a3b 048f 423e
00000230: 8ed8 4abe ab80 a7bd dd99 18bd b1d0 41be
00000240: b328 1a3e 61b6 883e 730f 6e3d ccdd 273e
00000250: ae8d 073e 9592 95bc f6bc 09bd 5f27 66bd
00000260: 3ccf 353d 4342 40bd d3a9 4b3d e59c 003e
00000270: 2914 6e3d 79b4 1dbe 82dd c5bd 9b4c 483e
00000280: 10e0 053e 5f7f 6cbc 73ab 82bb 1c2d 363e
00000290: 1aa5 91be af69 f63c 01bb 2cbe 4605 61be
000002a0: 6f3e 1c3e 0067 82be cf90 323e a754 b33d
000002b0: e5a2 123e 55bd bbbd cd83 98bd 17f5 a63c
000002c0: 56c4 b63d cf4a e53d c6ca 84bd 2a3e 8d3c
000002d0: 2012 c3bb e7fb c9bc 2435 203d a0ab 4cbe
000002e0: 8299 dc3d 409d bd3d 479c bdbc 8f02 45be
000002f0: c121 073e a592 02be 6fcb c5bd a61a 21be
00000300: c084 16be ef9a 38be f882 2d3d 50a9 df3d
00000310: a755 a63d 0679 2c3d 8efd a1be a87c 51be
00000320: a5fd 373d 77ef d53e 0f89 e6bd eb01 e53b
00000330: 2d66 75be 4c71 763e b483 cd3c 0ccf a8be
00000340: fe33 78bc b238 8e3d 5466 343e fbdf eabb
00000350: 2b09 51bd 79ca ea3c fa6a 57bd 9e6a c3be
00000360: c1d9 863d 7c6a b93e b60a 31bc b7d7 1b3e
00000370: d4c5 1e3d d29f 523d d336 2c3d d79f 003e
00000380: f043 3a3e 4530 bcbe 22d1 e93c 5d18 493c
00000390: 3b2a 87bc dd71 f4bd 4295 173e b9b7 423c
000003a0: 5993 43bc 91a9 74bc b4ca 3d3e eafd 71be
000003b0: f530 b53d 89d4 873d 8cd0 2abd e69c 0dbd
000003c0: 8ae8 673d 07cc 873e 83b1 383d 03d3 e6bc
000003d0: a59e 983a 7413 483e 7aed f1bd 5744 08be
000003e0: 5447 983d 440a 2cbe eb9f c13e 1f7d 92bd
000003f0: 90c2 283e 35ca 83be 09ad 00bc d277 a73c
-0.18354727 -0.081849895 0.14334318 0.1460414 0.03897771 0.04836529 0.04327159 0.20497109
0.14549366 -0.13369752 -0.087570265 -0.0640982 -0.040551998 -0.017169995 -0.02141217 0.18884952
-0.070916176 0.18384397 -0.05172344 0.04615333 0.23287018 0.09642603 0.056485392 0.015860643
-0.18220149 -0.22517847 0.2113513 -0.04919293 0.15032281 0.05010637 -0.15917733 0.04274692
-0.053088233 0.047038812 0.02404514 -0.16467601 -0.2344356 -0.070465825 -0.16885327 -0.05566227
0.14723349 -0.18496206 -0.042019125 -0.022059707 -0.09659771 0.14195995 0.05148094 0.11787916
-0.078835 0.008952627 -0.19402707 0.09922238 -0.016679384 -0.27623487 -0.03715092 0.015446419
0.0906189 0.33125448 -0.1990677 0.014939606 0.19709365 0.04044172 0.008768015 0.17274211
0.26689595 -0.05773839 0.1829797 -0.13764732 0.18017617 0.010542282 0.011344659 -0.12285266
0.22238444 -0.10964052 -0.1439118 0.041482575 -0.106046826 0.059273623 -0.14544377 -0.09809003
-0.10157522 -0.15875119 -0.053839367 -0.0962596 -0.020990789 -0.027109047 -0.03964185 -0.25567085
-0.27702042 -0.037481356 0.09481904 -0.16660629 -0.08912721 0.055772446 0.264203 -0.18438683
0.10257321 -0.223547 0.0045517753 0.0104027325 -0.21586639 -0.17443533 -0.12933064 -0.091716304
-0.11323672 0.008299157 0.20977393 -0.09504795 0.038483072 -0.122222066 0.08777457 0.11192446
0.05824178 -0.10196058 0.14395861 0.107054844 -0.093454175 0.2858663 -0.049970657 0.18840203
0.08405331 -0.16820858 0.027024118 -0.0010212492 0.05732004 -0.05682615 0.058546506 0.012693204
0.13293397 0.14056596 -0.09049084 0.093894005 -0.11718814 0.26320782 -0.07543451 -0.2212827
0.06654676 0.057852454 0.0030860906 0.18999869 -0.19809172 -0.08178838 -0.03725611 -0.18927266
0.15054588 0.26701644 0.058120202 0.16393203 0.1323764 -0.018258372 -0.033627473 -0.05618989
0.044387087 -0.046938192 0.049722504 0.1255985 0.058124695 -0.15400876 -0.0966139 0.19560473
0.13073754 -0.0144346645 -0.0039877235 0.17790645 -0.28446275 0.03007969 -0.16868211 -0.21974668
0.15258192 -0.25469208 0.17438053 0.087563805 0.14319952 -0.091669716 -0.07447014 0.02038054
0.08924167 0.11195909 -0.064839885 0.017241556 -0.0059530884 -0.02465625 0.03911318 -0.19987345
0.10771467 0.09258509 -0.023145808 -0.19239257 0.1319647 -0.12751253 -0.096579425 -0.15732822
-0.14699078 -0.18027852 0.04236123 0.10920966 0.08121806 0.042107604 -0.3163876 -0.20457709
0.04491963 0.4178426 -0.112566106 0.006988754 -0.23964758 0.24066657 0.025087215 -0.32970464
-0.015149115 0.069444075 0.1761716 -0.007167814 -0.051034134 0.028661 -0.052592255 -0.3816728
0.06584502 0.36214054 -0.010805776 0.15219007 0.038762882 0.051421948 0.042044472 0.12560974
0.18189979 -0.36755577 0.028542105 0.012273875 -0.01649963 -0.1193578 0.14803031 0.011884623
-0.011936986 -0.014933006 0.18534356 -0.23632017 0.088472284 0.06632335 -0.041702792 -0.034573458
0.05661825 0.26522848 0.045091163 -0.02817679 0.001164396 0.19538671 -0.11812873 -0.1330732
0.0743548 -0.16800791 0.3781732 -0.07152771 0.1648047 -0.2574021 -0.007853755 0.020442877

bias f4 [96]
00000000: edea 89bd 03cb ab3d f258 45bd 3d1d 1b3d
00000010: 371c 0b3e 244d 27be 8150 4dbd f9b4 e2bd
00000020: a2d6 9e3d a3cf 66bd bb9f 383c c435 883d
00000030: a0fe f13d cc4d 08be 1280 04be e185 f93d
00000040: 9478 adbd 246c 28bd 33f8 88bd dc77 24be
00000050: 8242 acbd 249a 893c 2e6e 2b3c 53fb 773c
00000060: 843c 493d f1a5 973d 58a0 fabd dcaa 1d3d
00000070: ada5 57bd 3ad8 fabb 0cab fcbd 5054 383d
00000080: 1dac ca3d 601d 183d fcd0 0d3c 7496 3c3e
00000090: 3d29 4abd 1582 bdbd ec2a 883d 84c0 043c
000000a0: 944d 2d3d 2b49 d5bd 549b 82bd aca3 2ebe
000000b0: bb1b 19bd 1b7a 893d 0874 d33d db0f c73c
000000c0: b506 2f3d 1a99 afbd 477c f7bd 2610 dbbc
000000d0: 73d2 1bbe c3c8 d7bc ff41 643d 9f7a 67bd
000000e0: 03c6 123e c2db e33d 4447 babc 30c6 f33d
000000f0: 9a6b 1c3e 68c8 85bd 567f 1a3e ffbc ad3c
00000100: a005 50bd 5783 2e3d adcc 25bc e3e3 253e
00000110: 805e aa3a cb23 36be 284e 19bd cd99 3ebd
00000120: 732d 523e bffe 3bbe d11a ea3c 540d 4e3d
00000130: 372f 1cbd 1ede 38bd dd84 46bd bb3f 4e3e
00000140: dd57 cebc f6e6 5bbe 28d0 f03d 5d10 c93d
00000150: 6f70 a43d da5d 59bd 334f c9bd f152 3b3d
00000160: 2453 4ebe a11e 063d 567a 0d3d 06fb df3d
00000170: de29 cebc e26d 943c 3374 1e3d 595c 333e
-0.06734262 0.08388331 -0.048180528 0.03786968 0.13584982 -0.1633802 -0.050125603 -0.11069674
0.07755782 -0.05635036 0.011268551 0.0665088 0.11816144 -0.13310927 -0.1293948 0.121837385
-0.08470264 -0.041118756 -0.06687965 -0.16061348 -0.08411123 0.016797133 0.010463281 0.015135604
0.049129978 0.07404698 -0.122376144 0.038493022 -0.052648235 -0.0076551707 -0.12337312 0.04500228
0.09896109 0.03713739 0.008655783 0.18416768 -0.049355734 -0.09253327 0.06648812 0.00810254
0.042310312 -0.10414346 -0.06377283 -0.17054623 -0.03737996 0.06712743 0.103248656 0.024299553
0.042731006 -0.08574124 -0.12084251 -0.026741099 -0.15216999 -0.026340848 0.055727 -0.056513425
0.14333348 0.111259 -0.02273906 0.11903036 0.15275422 -0.06532365 0.15087637 0.021208284
-0.050786614 0.042605724 -0.010119599 0.16200213 0.0012998134 -0.17787091 -0.03742805 -0.046533395
0.2052515 -0.18358897 0.02857724 0.05030568 -0.038130965 -0.045133702 -0.048466552 0.20141499
-0.02518838 -0.21474823 0.11758453 0.09817574 0.080292575 -0.05306802 -0.09829559 0.045733396
-0.20148903 0.032744054 0.034540497 0.10936551 -0.025166448 0.018118802 0.038685035 0.17515697

weight f4 [256, 96]
00000000: 3bb3 14be 1300 d1be 9600 673c bebb f03c
00000010: 68a7 a8bd 4a1d 0bbe 8bf1 13bc 69d7 09bc
00000020: c45f 163e a0bf ac3d f7f2 b3be ef63 c6bb
00000030: cda6 493e dea3 863e 481f 06be 85bd 23be
00000040: 515d 78be b664 613e 1e61 ab3d 350e 583e
00000050: 4692 ccbd 02a5 2e3c ed4b f83d ca0d 293d
00000060: ed93 103d 42f6 50bd 4abd af3d 52ec 17be
00000070: cd99 df3d 793e cdbd 5a52 4e3e e4a5 a7bc
00000080: ab2d 32bd e379 dc3d fd22 51be fdf8 ba3d
00000090: b61e e73d 5eda 0ebe f0d4 e5be 377f a3bd
000000a0: f71b 29be 3267 2d3d d5f6 363e 01e6 103d
000000b0: 6fe9 f1bc 1c53 dbbd 580d 26be 4b9b c03e
000000c0: 73ef b6be 4de1 403d 8086 b2bc 50eb b4bd
000000d0: c213 cdbd f68d 22be 12f7 6f3e 5e28 603d
000000e0: 1b3e 8e3d eaa6 36be fe92 b23d a7f7 72be
000000f0: 1194 9cbc fb28 643d 06d7 233e 4fad 56be
00000100: 96f9 d0bc 5377 40be 0462 64bd 2e71 b43d
00000110: c7fe 84bc ca32 903e 24e5 96bd a923 a5bd
00000120: 8059 7d3e ee0c eb3d d198 06be 350a 873d
00000130: 39d3 dc3d 6a53 a23e 8349 bb3d df43 fbbd
00000140: 192b 233e 8b56 1bbe 5a15 7a3d 3886 2dbe
00000150: 4270 93be 2ffc 82bd bac9 57bd 04f6 4a3d
00000160: 77ca f33b a65c dc3d 9e7f 19be ba7a 783d
00000170: d7e3 01be d46f 9a3d 3feb 3bbd 3aec 3dbe
00000180: c02d b4bd 6942 eebd e62b d33c 8ccf 93be
00000190: 212c 2bbe 515d 6fbb af8e 803d c506 493e
000001a0: 95dd 9cbd 2080 92bd 9da0 e9bd 9cc6 4ebd
000001b0: 2317 de3d 4d0a 8d3c 9329 0fbd df7e e6bd
000001c0: be1e d6bd 2c65 ad3c c7bb 3738 7331 5c3e
000001d0: f9ba f03c a825 f2bc f55a 953e ff1e 023c
000001e0: d1d5 843d e839 3ebe ddc6 9f3e 00c4 043e
000001f0: db00 babd 9507 46bb fea2 aa3e 55fe 91be
00000200: f1a1 dfba 59b9 283e da0f 37be 6cb4 ebbc
00000210: 9664 873c 472b 27bc a272 abbe 7c34 ac3d
00000220: bd05 243d 043e 083d 22e7 8a3c f756 333e
00000230: 204c b63d 1ebd ecbd a155 6bbc b40f 023e
00000240: b92b babe 6cc7 543e 6d63 9f3d 8c65 88bd
00000250: e032 bbbb a311 f5bd 9863 373d b537 0a3c
00000260: 7240 b5bb e08f a4bd d462 aa3d 0eaa 23be
00000270: 062d 7c3c 31a6 13be 85aa 273e 23e1 a5be
00000280: d872 94bc 891c aebd 4e45 b7bd ad24 61bc
00000290: 0abd ccbd f91f ed3d 3761 80bd 6792 e4bd
000002a0: bff9 053e d2f5 ea3d 859e 24be ac31 2fbe
000002b0: c3bb a93d 6952 8b3e f7d2 2fbe 5faf 21bd
000002c0: 6801 6a3e 6463 2e3d 604b 803d a5c1 2c3b
000002d0: d60a 0cbd 4170 b53d 10aa 863e 2a49 693c
000002e0: 08b1 aebd e470 bbbd 1701 3fbe bd33 31be
000002f0: d6ac 22be 4655 b9bd caa9 05be cf69 9fbe
00000300: 4035 2e3d 0ca5 1bbd 1445 0fbc 08ba 67bd
00000310: a501 34bd e1e5 1b3e e849 3c3e a8fc 7e3d
00000320: b282 9d3c 00b7 c53d 7a59 a7bd c9e3 32bd
00000330: 2108 22bd 8b8d d83c 9134 8ebc 0874 b2bc
00000340: 8286 2d3e b6a4 d2bd b15a 9e3d 8acc e03d
00000350: b620 e7bd d424 e9bd dbc4 f93c f0af 633d
00000360: 7e58 99bd a8ed 2dbe 0d4e ed3d 4313 4fbc
00000370: 8bd1 ca3b 0fb5 063e de96 303e 18fe fe3d
00000380: b177 5abe 0f36 463d e22f a1bd 5c4c 8cbc
00000390: cadb 793e 5674 2a3e b46c 24be 40e0 1d3e
000003a0: acad d5bc 018b 073e 5dc9 62bb b118 f93d
000003b0: bde0 ec3d 369c 09be 9ad1 6fbc 3510 6e3e
000003c0: fc9e 1fbe 769c c63d e82f 4bbc cf93 c9bd
000003d0: a440 f23d 25cd 30bb 8777 64be a048 cfbb
000003e0: ae4c 47be f39a fbbd d70d 5f3c 3782 e6bd
000003f0: 9b5c 16be e510 2339 59a7 8f3c 9709 9abd
-0.14521496 -0.4082037 0.014099261 0.029386397 -0.08235055 -0.13585392 -0.009029756 -0.008413174
0.14684969 0.08434987 -0.35146305 -0.0060543935 0.19692536 0.26296896 -0.1309787 -0.15990265
-0.24254347 0.22011074 0.08368133 0.2109917 -0.09988837 0.010659458 0.12123857 0.041272916
0.035297323 -0.0510161 0.08581026 -0.14836243 0.10918007 -0.10021681 0.20148602 -0.020464845
-0.043500584 0.107654355 -0.20423503 0.09129522 0.112851545 -0.13950488 -0.4488902 -0.07983249
-0.16514574 0.042334743 0.17867596 0.0353756 -0.029530255 -0.10709211 -0.16216028 0.3761848
-0.3572956 0.047089864 -0.02179265 -0.08833945 -0.10013534 -0.15874466 0.23434094 0.054725997
0.069454394 -0.1783711 0.08719443 -0.23727284 -0.019113572 0.055703145 0.15999994 -0.2096455
-0.025509637 -0.18795519 -0.055757537 0.0881065 -0.016234769 0.2816375 -0.07367924 -0.08063442
0.24741173 0.114770755 -0.13144232 0.06593744 0.10782475 0.31704265 0.091448806 -0.12268805
0.15934409 -0.15169732 0.06105552 -0.16945732 -0.28796583 -0.063957565 -0.052682616 0.049551025
0.007439907 0.10759859 -0.14990088 0.060663916 -0.1268457 0.07540861 -0.045878645 -0.18547145
-0.087977886 -0.116337605 0.025777768 -0.28869283 -0.16716053 -0.0036524127 0.06277215 0.19631489
-0.07659451 -0.07153344 -0.11407588 -0.050482377 0.10844257 0.017216826 -0.034951758 -0.112546675
-0.10455082 0.021166407 4.380548e-05 0.21503238 0.02938603 -0.029558972 0.29170957 0.00794196
0.06486095 -0.18576777 0.31206408 0.12965393 -0.090821944 -0.0030216922 0.33327478 -0.28514352
-0.0017061812 0.16476955 -0.1787714 -0.028772555 0.016527455 -0.010203189 -0.33485895 0.08408448
0.040044535 0.033262268 0.016955916 0.17513643 0.089012384 -0.11559509 -0.014363677 0.12701303
-0.36361483 0.20779198 0.07782636 -0.066599935 -0.005712852 -0.119662546 0.044772714 0.008436133
-0.005531364 -0.080352545 0.08319631 -0.1598284 0.015391594 -0.14418866 0.16373642 -0.32398328
-0.018121168 -0.085015364 -0.08948766 -0.013741654 -0.09996994 0.11578364 -0.06268542 -0.111607365
0.13083552 0.11472668 -0.16076095 -0.17108792 0.08287766 0.2721131 -0.1717032 -0.039473888
0.22852099 0.042575255 0.06264377 0.0026360538 -0.03419002 0.08859301 0.26301622 0.014238635
-0.0852986 -0.091523916 -0.1865276 -0.17304893 -0.15886244 -0.09049468 -0.1305305 -0.31135413
0.042531252 -0.037999198 -0.008744497 -0.056573898 -0.04394688 0.1522441 0.18387568 0.06225267
0.01922736 0.09654045 -0.08171363 -0.043674264 -0.039558534 0.02643468 -0.01735905 -0.021783844
0.16945842 -0.10285322 0.07732142 0.10976513 -0.11285536 -0.113839775 0.030489376 0.05558771
-0.07487582 -0.1698519 0.11587153 -0.01263887 0.0061895302 0.13155006 0.17245051 0.12450808
-0.21334721 0.048391398 -0.07870461 -0.017126255 0.24400249 0.16645941 -0.16057092 0.15417576
-0.02608379 0.1323662 -0.0034604885 0.12162913 0.11566303 -0.13438496 -0.014637375 0.2324837
-0.15587991 0.09697811 -0.012401558 -0.098426454 0.118287355 -0.0026977744 -0.22311221 -0.0063257962
-0.19462845 -0.122854136 0.0136141395 -0.11255305 -0.14683764 0.00015551185 0.017535852 -0.0752136
